…
WARNING:tensorflow:TensorFlow GPU support is not available on native Windows for TensorFlow >= 2.11. Even if CUDA/cuDNN are installed, GPU will not be used. Please use WSL2 or the TensorFlow-DirectML plugin.
2026-04-14 13:30:42,886 [WARNING] TensorFlow GPU support is not available on native Windows for TensorFlow >= 2.11. Even if CUDA/cuDNN are installed, GPU will not be used. Please use WSL2 or the TensorFlow-DirectML plugin.
2026-04-14 13:30:42,988 [INFO] Model: "CNN_GRU_IDS"
┏━━━━━━━━━━━━━━━━━━━━━━━━━━━━━━━━━━━━━━┳━━━━━━━━━━━━━━━━━━━━━━━━━━━━━┳━━━━━━━━━━━━━━━━━┓
┃ Layer (type)                         ┃ Output Shape                ┃         Param # ┃
┡━━━━━━━━━━━━━━━━━━━━━━━━━━━━━━━━━━━━━━╇━━━━━━━━━━━━━━━━━━━━━━━━━━━━━╇━━━━━━━━━━━━━━━━━┩
│ input (InputLayer)                   │ (None, 20, 39)              │               0 │
├──────────────────────────────────────┼─────────────────────────────┼─────────────────┤
│ conv1 (Conv1D)                       │ (None, 20, 64)              │           7,552 │
├──────────────────────────────────────┼─────────────────────────────┼─────────────────┤
│ bn1 (BatchNormalization)             │ (None, 20, 64)              │             256 │
├──────────────────────────────────────┼─────────────────────────────┼─────────────────┤
│ relu1 (Activation)                   │ (None, 20, 64)              │               0 │
├──────────────────────────────────────┼─────────────────────────────┼─────────────────┤
│ pool1 (MaxPooling1D)                 │ (None, 10, 64)              │               0 │
├──────────────────────────────────────┼─────────────────────────────┼─────────────────┤
│ conv2 (Conv1D)                       │ (None, 10, 128)             │          24,704 │
├──────────────────────────────────────┼─────────────────────────────┼─────────────────┤
│ bn2 (BatchNormalization)             │ (None, 10, 128)             │             512 │
├──────────────────────────────────────┼─────────────────────────────┼─────────────────┤
│ relu2 (Activation)                   │ (None, 10, 128)             │               0 │
├──────────────────────────────────────┼─────────────────────────────┼─────────────────┤
│ gru (GRU)                            │ (None, 64)                  │          37,248 │
├──────────────────────────────────────┼─────────────────────────────┼─────────────────┤
│ dropout1 (Dropout)                   │ (None, 64)                  │               0 │
├──────────────────────────────────────┼─────────────────────────────┼─────────────────┤
│ dense1 (Dense)                       │ (None, 128)                 │           8,320 │
├──────────────────────────────────────┼─────────────────────────────┼─────────────────┤
│ dropout2 (Dropout)                   │ (None, 128)                 │               0 │
├──────────────────────────────────────┼─────────────────────────────┼─────────────────┤
│ output (Dense)                       │ (None, 10)                  │           1,290 │
└──────────────────────────────────────┴─────────────────────────────┴─────────────────┘
 Total params: 79,882 (312.04 KB)
 Trainable params: 79,498 (310.54 KB)
 Non-trainable params: 384 (1.50 KB)

2026-04-14 13:30:42,990 [INFO] Training [CNN_GRU_IDS] — 2,438 samples | batch=64 | max_epochs=30
Epoch 1/30
39/39 ━━━━━━━━━━━━━━━━━━━━ 0s 23ms/step - accuracy: 0.1579 - loss: 0.4580 
Epoch 1: val_loss improved from None to 0.45218, saving model to C:\Users\bhara\OneDrive\Desktop\ids_project\outputs\saved_models\CNN_GRU_IDS.keras
…
2026-04-14 13:31:29,164 [INFO]   Training complete in 46.2s (0.77 min) | Best val_loss at epoch 13
2026-04-14 13:31:29,170 [INFO]   History saved → C:\Users\bhara\OneDrive\Desktop\ids_project\outputs\saved_models\CNN_GRU_IDS_history.json
2026-04-14 13:31:29,431 [INFO] Model: "BiLSTM_Baseline"
┏━━━━━━━━━━━━━━━━━━━━━━━━━━━━━━━━━━━━━━┳━━━━━━━━━━━━━━━━━━━━━━━━━━━━━┳━━━━━━━━━━━━━━━━━┓
┃ Layer (type)                         ┃ Output Shape                ┃         Param # ┃
┡━━━━━━━━━━━━━━━━━━━━━━━━━━━━━━━━━━━━━━╇━━━━━━━━━━━━━━━━━━━━━━━━━━━━━╇━━━━━━━━━━━━━━━━━┩
│ input (InputLayer)                   │ (None, 20, 39)              │               0 │
├──────────────────────────────────────┼─────────────────────────────┼─────────────────┤
│ bilstm1 (Bidirectional)              │ (None, 20, 256)             │         172,032 │
├──────────────────────────────────────┼─────────────────────────────┼─────────────────┤
│ dropout (Dropout)                    │ (None, 20, 256)             │               0 │
├──────────────────────────────────────┼─────────────────────────────┼─────────────────┤
│ bilstm2 (Bidirectional)              │ (None, 128)                 │         164,352 │
├──────────────────────────────────────┼─────────────────────────────┼─────────────────┤
│ dropout_1 (Dropout)                  │ (None, 128)                 │               0 │
├──────────────────────────────────────┼─────────────────────────────┼─────────────────┤
│ dense1 (Dense)                       │ (None, 64)                  │           8,256 │
├──────────────────────────────────────┼─────────────────────────────┼─────────────────┤
│ dropout_2 (Dropout)                  │ (None, 64)                  │               0 │
├──────────────────────────────────────┼─────────────────────────────┼─────────────────┤
│ output (Dense)                       │ (None, 10)                  │             650 │
└──────────────────────────────────────┴─────────────────────────────┴─────────────────┘
 Total params: 345,290 (1.32 MB)
 Trainable params: 345,290 (1.32 MB)
 Non-trainable params: 0 (0.00 B)

2026-04-14 13:31:29,434 [INFO] Training [BiLSTM_Baseline] — 2,438 samples | batch=64 | max_epochs=30
Epoch 1/30
38/39 ━━━━━━━━━━━━━━━━━━━━ 0s 102ms/step - accuracy: 0.1084 - loss: 2.3066
Epoch 1: val_loss improved from None to 2.29403, saving model to C:\Users\bhara\OneDrive\Desktop\ids_project\outputs\saved_models\BiLSTM_Baseline.keras
…
2026-04-14 13:34:20,277 [INFO]   Training complete in 170.8s (2.85 min) | Best val_loss at epoch 29
2026-04-14 13:34:20,280 [INFO]   History saved → C:\Users\bhara\OneDrive\Desktop\ids_project\outputs\saved_models\BiLSTM_Baseline_history.json
2026-04-14 13:34:20,531 [INFO] Model: "MLP_Baseline"
┏━━━━━━━━━━━━━━━━━━━━━━━━━━━━━━━━━━━━━━┳━━━━━━━━━━━━━━━━━━━━━━━━━━━━━┳━━━━━━━━━━━━━━━━━┓
┃ Layer (type)                         ┃ Output Shape                ┃         Param # ┃
┡━━━━━━━━━━━━━━━━━━━━━━━━━━━━━━━━━━━━━━╇━━━━━━━━━━━━━━━━━━━━━━━━━━━━━╇━━━━━━━━━━━━━━━━━┩
│ input (InputLayer)                   │ (None, 20, 39)              │               0 │
├──────────────────────────────────────┼─────────────────────────────┼─────────────────┤
│ flatten (Flatten)                    │ (None, 780)                 │               0 │
├──────────────────────────────────────┼─────────────────────────────┼─────────────────┤
│ dense_1 (Dense)                      │ (None, 256)                 │         199,936 │
├──────────────────────────────────────┼─────────────────────────────┼─────────────────┤
│ bn_1 (BatchNormalization)            │ (None, 256)                 │           1,024 │
├──────────────────────────────────────┼─────────────────────────────┼─────────────────┤
│ relu_1 (Activation)                  │ (None, 256)                 │               0 │
├──────────────────────────────────────┼─────────────────────────────┼─────────────────┤
│ dropout_1 (Dropout)                  │ (None, 256)                 │               0 │
├──────────────────────────────────────┼─────────────────────────────┼─────────────────┤
│ dense_2 (Dense)                      │ (None, 128)                 │          32,896 │
├──────────────────────────────────────┼─────────────────────────────┼─────────────────┤
│ bn_2 (BatchNormalization)            │ (None, 128)                 │             512 │
├──────────────────────────────────────┼─────────────────────────────┼─────────────────┤
│ relu_2 (Activation)                  │ (None, 128)                 │               0 │
├──────────────────────────────────────┼─────────────────────────────┼─────────────────┤
│ dropout_2 (Dropout)                  │ (None, 128)                 │               0 │
├──────────────────────────────────────┼─────────────────────────────┼─────────────────┤
│ dense_3 (Dense)                      │ (None, 64)                  │           8,256 │
├──────────────────────────────────────┼─────────────────────────────┼─────────────────┤
│ bn_3 (BatchNormalization)            │ (None, 64)                  │             256 │
├──────────────────────────────────────┼─────────────────────────────┼─────────────────┤
│ relu_3 (Activation)                  │ (None, 64)                  │               0 │
├──────────────────────────────────────┼─────────────────────────────┼─────────────────┤
│ dropout_3 (Dropout)                  │ (None, 64)                  │               0 │
├──────────────────────────────────────┼─────────────────────────────┼─────────────────┤
│ output (Dense)                       │ (None, 10)                  │             650 │
└──────────────────────────────────────┴─────────────────────────────┴─────────────────┘
 Total params: 243,530 (951.29 KB)
 Trainable params: 242,634 (947.79 KB)
 Non-trainable params: 896 (3.50 KB)

2026-04-14 13:34:20,541 [INFO] Training [MLP_Baseline] — 2,438 samples | batch=64 | max_epochs=30
Epoch 1/30
33/39 ━━━━━━━━━━━━━━━━━━━━ 0s 7ms/step - accuracy: 0.1106 - loss: 2.6877 
Epoch 1: val_loss improved from None to 2.24872, saving model to C:\Users\bhara\OneDrive\Desktop\ids_project\outputs\saved_models\MLP_Baseline.keras
…
